module {
  memref.global "private" @constant_7840xf32_0 : memref<7840xf32> = dense<"…">
  memref.global "private" @linear_bias : memref<10xf32> = dense<[-6.296120e-02, 0.0944714397, -0.00626989966, -0.0283874106, 0.00623913156, 0.0182388891, -0.043774806, 0.0546340905, -0.0978825613, -0.00181237468]>
  func.func private @linear2d_0(%arg0: memref<784xf32>, %arg1: memref<7840xf32>, %arg2: memref<10xf32>, %arg3: memref<10xf32>) attributes {itypes = "___", otypes = "_"} {
    %cst = arith.constant 0.000000e+00 : f32
    %c784 = arith.constant 784 : index
    %c10 = arith.constant 10 : index
    %c1 = arith.constant 1 : index
    %c0 = arith.constant 0 : index
    %alloc = memref.alloc() : memref<10xf32>
    %alloc_0 = memref.alloc() {name = "buf"} : memref<10xf32>
    scf.for %arg4 = %c0 to %c10 step %c1 {
      memref.store %cst, %alloc_0[%arg4] : memref<10xf32>
    }
    scf.for %arg4 = %c0 to %c784 step %c1 {
      %0 = memref.load %arg0[%arg4] : memref<784xf32>
      %alloc_1 = memref.alloc() : memref<1xf32>
      memref.store %0, %alloc_1[%c0] : memref<1xf32>
      scf.for %arg5 = %c0 to %c10 step %c1 {
        %1 = memref.load %alloc_1[%c0] : memref<1xf32>
        %2 = arith.muli %arg5, %c784 : index
        %3 = arith.addi %2, %arg4 : index
        %4 = memref.load %arg1[%3] : memref<7840xf32>
        %5 = arith.mulf %1, %4 : f32
        %6 = memref.load %alloc_0[%arg5] : memref<10xf32>
        %7 = arith.addf %6, %5 : f32
        memref.store %7, %alloc_0[%arg5] : memref<10xf32>
      }
    }
    scf.for %arg4 = %c0 to %c10 step %c1 {
      %0 = memref.load %alloc_0[%arg4] : memref<10xf32>
      %1 = memref.load %arg2[%arg4] : memref<10xf32>
      %2 = arith.addf %0, %1 : f32
      memref.store %2, %alloc[%arg4] : memref<10xf32>
    }
    affine.for %arg4 = 0 to 10 {
      %0 = memref.load %alloc[%arg4] : memref<10xf32>
      memref.store %0, %arg3[%arg4] : memref<10xf32>
    }
    return
  }
  func.func private @forward(%arg0: memref<784xf32>, %arg1: memref<10xf32>) attributes {itypes = "_", otypes = "_"} {
    %0 = memref.get_global @constant_7840xf32_0 : memref<7840xf32>
    %1 = memref.get_global @linear_bias : memref<10xf32>
    %alloc = memref.alloc() : memref<10xf32>
    call @linear2d_0(%arg0, %0, %1, %alloc) : (memref<784xf32>, memref<7840xf32>, memref<10xf32>, memref<10xf32>) -> ()
    affine.for %arg2 = 0 to 10 {
      %2 = memref.load %alloc[%arg2] : memref<10xf32>
      memref.store %2, %arg1[%arg2] : memref<10xf32>
    }
    return
  }
}

